----------------------------------------------------------------
        Layer (type)               Output Shape         Param #
================================================================
            Conv2d-1           [-1, 32, 64, 64]             896
              ReLU-2           [-1, 32, 64, 64]               0
         MaxPool2d-3           [-1, 32, 32, 32]               0
              ReLU-4           [-1, 32, 32, 32]               0
            Conv2d-5           [-1, 64, 32, 32]          18,496
              ReLU-6           [-1, 64, 32, 32]               0
         MaxPool2d-7           [-1, 64, 16, 16]               0
              ReLU-8           [-1, 64, 16, 16]               0
            Conv2d-9          [-1, 128, 16, 16]          73,856
             ReLU-10          [-1, 128, 16, 16]               0
AdaptiveAvgPool2d-11            [-1, 128, 8, 8]               0
           Linear-12                  [-1, 128]       1,048,704
           Linear-13                    [-1, 8]           1,032
================================================================
Total params: 1,142,984
Trainable params: 1,142,984
Non-trainable params: 0
----------------------------------------------------------------
Input size (MB): 0.05
Forward/backward pass size (MB): 4.31
Params size (MB): 4.36
Estimated Total Size (MB): 8.72
----------------------------------------------------------------
[1,    10] loss: 1.939
…
